(.venv) PS C:\Raghu\MyLearnings\ERA_V4\S7-27092025\cifar10_image_classication> python .\ExperimentCIFAR10.py
Files already downloaded and verified
Files already downloaded and verified
CUDA Available? True
cuda
----------------------------------------------------------------
        Layer (type)               Output Shape         Param #
================================================================
            Conv2d-1           [-1, 32, 32, 32]             864
       BatchNorm2d-2           [-1, 32, 32, 32]              64
              ReLU-3           [-1, 32, 32, 32]               0
           Dropout-4           [-1, 32, 32, 32]               0
            Conv2d-5           [-1, 64, 16, 16]          18,432
       BatchNorm2d-6           [-1, 64, 16, 16]             128
              ReLU-7           [-1, 64, 16, 16]               0
           Dropout-8           [-1, 64, 16, 16]               0
            Conv2d-9           [-1, 16, 16, 16]           1,024
      BatchNorm2d-10           [-1, 16, 16, 16]              32
             ReLU-11           [-1, 16, 16, 16]               0
          Dropout-12           [-1, 16, 16, 16]               0
           Conv2d-13           [-1, 32, 16, 16]           4,608
      BatchNorm2d-14           [-1, 32, 16, 16]              64
             ReLU-15           [-1, 32, 16, 16]               0
          Dropout-16           [-1, 32, 16, 16]               0
           Conv2d-17             [-1, 32, 8, 8]             288
      BatchNorm2d-18             [-1, 32, 8, 8]              64
             ReLU-19             [-1, 32, 8, 8]               0
           Conv2d-20             [-1, 64, 8, 8]           2,048
      BatchNorm2d-21             [-1, 64, 8, 8]             128
             ReLU-22             [-1, 64, 8, 8]               0
          Dropout-23             [-1, 64, 8, 8]               0
           Conv2d-24             [-1, 32, 8, 8]           2,048
      BatchNorm2d-25             [-1, 32, 8, 8]              64
             ReLU-26             [-1, 32, 8, 8]               0
          Dropout-27             [-1, 32, 8, 8]               0
           Conv2d-28             [-1, 64, 8, 8]          18,432
      BatchNorm2d-29             [-1, 64, 8, 8]             128
             ReLU-30             [-1, 64, 8, 8]               0
          Dropout-31             [-1, 64, 8, 8]               0
           Conv2d-32            [-1, 128, 8, 8]          73,728
      BatchNorm2d-33            [-1, 128, 8, 8]             256
             ReLU-34            [-1, 128, 8, 8]               0
          Dropout-35            [-1, 128, 8, 8]               0
           Conv2d-36             [-1, 32, 8, 8]           4,096
      BatchNorm2d-37             [-1, 32, 8, 8]              64
             ReLU-38             [-1, 32, 8, 8]               0
          Dropout-39             [-1, 32, 8, 8]               0
           Conv2d-40             [-1, 32, 8, 8]           9,216
      BatchNorm2d-41             [-1, 32, 8, 8]              64
             ReLU-42             [-1, 32, 8, 8]               0
          Dropout-43             [-1, 32, 8, 8]               0
           Conv2d-44             [-1, 64, 4, 4]          18,432
      BatchNorm2d-45             [-1, 64, 4, 4]             128
             ReLU-46             [-1, 64, 4, 4]               0
          Dropout-47             [-1, 64, 4, 4]               0
           Conv2d-48            [-1, 128, 4, 4]           8,192
      BatchNorm2d-49            [-1, 128, 4, 4]             256
             ReLU-50            [-1, 128, 4, 4]               0
          Dropout-51            [-1, 128, 4, 4]               0
AdaptiveAvgPool2d-52            [-1, 128, 1, 1]               0
           Linear-53                   [-1, 10]           1,290
================================================================
Total params: 164,138
Trainable params: 164,138
Non-trainable params: 0
----------------------------------------------------------------
Input size (MB): 0.01
Forward/backward pass size (MB): 2.70
Params size (MB): 0.63
Estimated Total Size (MB): 3.34
----------------------------------------------------------------
EPOCH: 1
03102025-1336
…
