(.venv) PS C:\Raghu\MyLearnings\ERA_V4\S7-27092025\cifar10_image_classication> python .\ExperimentCIFAR10.py
Files already downloaded and verified
Files already downloaded and verified
CUDA Available? True
cuda
----------------------------------------------------------------
        Layer (type)               Output Shape         Param #
================================================================
            Conv2d-1           [-1, 32, 16, 16]             864
       BatchNorm2d-2           [-1, 32, 16, 16]              64
            Conv2d-3             [-1, 32, 8, 8]             288
            Conv2d-4             [-1, 64, 8, 8]           2,048
       BatchNorm2d-5             [-1, 64, 8, 8]             128
            Conv2d-6            [-1, 128, 8, 8]          73,728
       BatchNorm2d-7            [-1, 128, 8, 8]             256
            Conv2d-8             [-1, 96, 4, 4]         110,592
       BatchNorm2d-9             [-1, 96, 4, 4]             192
           Conv2d-10             [-1, 10, 4, 4]             960
AdaptiveAvgPool2d-11             [-1, 10, 1, 1]               0
================================================================
Total params: 189,120
Trainable params: 189,120
Non-trainable params: 0
----------------------------------------------------------------
Input size (MB): 0.01
Forward/backward pass size (MB): 0.35
Params size (MB): 0.72
Estimated Total Size (MB): 1.09
----------------------------------------------------------------
EPOCH: 1
02102025-1724
…
