…
  original_init(self, **validated_kwargs)
C:\Raghu\MyLearnings\ERA_V4\S7-27092025\cifar10_image_classication\ExperimentCIFAR10.py:42: UserWarning: Argument(s) 'max_holes, min_holes, max_height, max_width, min_height, min_width, fill_value' are not valid for transform CoarseDropout
  A.CoarseDropout(
Files already downloaded and verified
Files already downloaded and verified
CUDA Available? True
cuda
----------------------------------------------------------------
        Layer (type)               Output Shape         Param #
================================================================
            Conv2d-1            [-1, 8, 32, 32]             224
       BatchNorm2d-2            [-1, 8, 32, 32]              16
            Conv2d-3           [-1, 16, 32, 32]           1,168
       BatchNorm2d-4           [-1, 16, 32, 32]              32
         MaxPool2d-5           [-1, 16, 16, 16]               0
            Conv2d-6           [-1, 16, 16, 16]           2,320
       BatchNorm2d-7           [-1, 16, 16, 16]              32
         MaxPool2d-8             [-1, 16, 8, 8]               0
            Conv2d-9             [-1, 28, 8, 8]           4,060
      BatchNorm2d-10             [-1, 28, 8, 8]              56
           Conv2d-11             [-1, 10, 8, 8]             290
AdaptiveAvgPool2d-12             [-1, 10, 1, 1]               0
================================================================
Total params: 8,198
Trainable params: 8,198
Non-trainable params: 0
----------------------------------------------------------------
Input size (MB): 0.01
Forward/backward pass size (MB): 0.51
Params size (MB): 0.03
Estimated Total Size (MB): 0.55
----------------------------------------------------------------
EPOCH: 1
30092025-2226
…
  original_init(self, **validated_kwargs)
C:\Raghu\MyLearnings\ERA_V4\S7-27092025\cifar10_image_classication\ExperimentCIFAR10.py:42: UserWarning: Argument(s) 'max_holes, min_holes, max_height, max_width, min_height, min_width, fill_value' are not valid for transform CoarseDropout
  A.CoarseDropout(
Files already downloaded and verified
Files already downloaded and verified
CUDA Available? True
cuda
----------------------------------------------------------------
        Layer (type)               Output Shape         Param #
================================================================
            Conv2d-1            [-1, 8, 31, 31]             224
       BatchNorm2d-2            [-1, 8, 31, 31]              16
            Conv2d-3           [-1, 16, 31, 31]           1,168
       BatchNorm2d-4           [-1, 16, 31, 31]              32
         MaxPool2d-5           [-1, 16, 15, 15]               0
            Conv2d-6           [-1, 16, 23, 23]           2,320
       BatchNorm2d-7           [-1, 16, 23, 23]              32
         MaxPool2d-8           [-1, 16, 11, 11]               0
            Conv2d-9           [-1, 28, 21, 21]           4,060
      BatchNorm2d-10           [-1, 28, 21, 21]              56
           Conv2d-11           [-1, 10, 21, 21]             290
AdaptiveAvgPool2d-12             [-1, 10, 1, 1]               0
================================================================
Total params: 8,198
Trainable params: 8,198
Non-trainable params: 0
----------------------------------------------------------------
Input size (MB): 0.01
Forward/backward pass size (MB): 0.75
Params size (MB): 0.03
Estimated Total Size (MB): 0.79
----------------------------------------------------------------
EPOCH: 1
01102025-1045
…
