…
C:\Raghu\MyLearnings\ERA_V4\S7-27092025\cifar10_image_classication\.venv\Lib\site-packages\torch\nn\modules\conv.py:456: UserWarning: Plan failed with a cudnnException: CUDNN_BACKEND_EXECUTION_PLAN_DESCRIPTOR: cudnnFinalize Descriptor Failed cudnn_status: CUDNN_STATUS_NOT_SUPPORTED (Triggered internally at ..\aten\src\ATen\native\cudnn\Conv_v8.cpp:919.)
  return F.conv2d(input, weight, bias, self.stride,
----------------------------------------------------------------
        Layer (type)               Output Shape         Param #
================================================================
            Conv2d-1           [-1, 32, 16, 16]             896
       BatchNorm2d-2           [-1, 32, 16, 16]              64
            Conv2d-3             [-1, 64, 8, 8]          18,496
       BatchNorm2d-4             [-1, 64, 8, 8]             128
            Conv2d-5            [-1, 128, 4, 4]          73,856
       BatchNorm2d-6            [-1, 128, 4, 4]             256
            Conv2d-7             [-1, 32, 6, 6]           4,128
            Conv2d-8             [-1, 64, 3, 3]          18,496
       BatchNorm2d-9             [-1, 64, 3, 3]             128
           Conv2d-10            [-1, 128, 2, 2]          73,856
      BatchNorm2d-11            [-1, 128, 2, 2]             256
           Conv2d-12             [-1, 10, 2, 2]           1,290
AdaptiveAvgPool2d-13             [-1, 10, 1, 1]               0
================================================================
Total params: 191,850
Trainable params: 191,850
Non-trainable params: 0
----------------------------------------------------------------
Input size (MB): 0.01
Forward/backward pass size (MB): 0.24
Params size (MB): 0.73
Estimated Total Size (MB): 0.99
----------------------------------------------------------------
EPOCH: 1
02102025-0757
…
