(.venv) PS C:\Raghu\MyLearnings\ERA_V4\S7-27092025\cifar10_image_classication> python .\ExperimentCIFAR10.py
Files already downloaded and verified
Files already downloaded and verified
CUDA Available? True
cuda
----------------------------------------------------------------
        Layer (type)               Output Shape         Param #
================================================================
            Conv2d-1            [-1, 8, 16, 16]             224
       BatchNorm2d-2            [-1, 8, 16, 16]              16
            Conv2d-3             [-1, 16, 8, 8]           1,168
       BatchNorm2d-4             [-1, 16, 8, 8]              32
            Conv2d-5             [-1, 32, 4, 4]           4,640
       BatchNorm2d-6             [-1, 32, 4, 4]              64
            Conv2d-7             [-1, 64, 2, 2]          18,496
       BatchNorm2d-8             [-1, 64, 2, 2]             128
            Conv2d-9            [-1, 128, 1, 1]          73,856
      BatchNorm2d-10            [-1, 128, 1, 1]             256
           Conv2d-11             [-1, 32, 1, 1]           4,128
           Conv2d-12              [-1, 8, 1, 1]             264
           Conv2d-13             [-1, 16, 1, 1]           1,168
      BatchNorm2d-14             [-1, 16, 1, 1]              32
           Conv2d-15             [-1, 32, 1, 1]           4,640
      BatchNorm2d-16             [-1, 32, 1, 1]              64
           Conv2d-17             [-1, 64, 1, 1]          18,496
      BatchNorm2d-18             [-1, 64, 1, 1]             128
           Conv2d-19            [-1, 128, 1, 1]          73,856
      BatchNorm2d-20            [-1, 128, 1, 1]             256
           Conv2d-21             [-1, 64, 1, 1]           8,256
           Conv2d-22             [-1, 10, 1, 1]             650
AdaptiveAvgPool2d-23             [-1, 10, 1, 1]               0
================================================================
Total params: 210,818
Trainable params: 210,818
Non-trainable params: 0
----------------------------------------------------------------
Input size (MB): 0.01
Forward/backward pass size (MB): 0.07
Params size (MB): 0.80
Estimated Total Size (MB): 0.88
----------------------------------------------------------------
EPOCH: 1
02102025-1037
…
